…
    "model.compile(loss=\"categorical_crossentropy\",\n",
    "              optimizer='adam',\n",
    "              metrics=['accuracy'])\n",
    "\n",
    "\n",
    "\n"
   ]
  },
  {
   "cell_type": "code",
   "execution_count": 39,
   "metadata": {},
   "outputs": [
    {
     "name": "stdout",
     "output_type": "stream",
     "text": [
      "Model: \"sequential_13\"\n",
      "_________________________________________________________________\n",
      "Layer (type)                 Output Shape              Param #   \n",
      "=================================================================\n",
      "conv2d_25 (Conv2D)           (None, 126, 126, 128)     1280      \n",
      "_________________________________________________________________\n",
      "max_pooling2d_25 (MaxPooling (None, 63, 63, 128)       0         \n",
      "_________________________________________________________________\n",
      "dropout_36 (Dropout)         (None, 63, 63, 128)       0         \n",
      "_________________________________________________________________\n",
      "batch_normalization_24 (Batc (None, 63, 63, 128)       512       \n",
      "_________________________________________________________________\n",
      "conv2d_26 (Conv2D)           (None, 61, 61, 128)       147584    \n",
      "_________________________________________________________________\n",
      "max_pooling2d_26 (MaxPooling (None, 30, 30, 128)       0         \n",
      "_________________________________________________________________\n",
      "dropout_37 (Dropout)         (None, 30, 30, 128)       0         \n",
      "_________________________________________________________________\n",
      "batch_normalization_25 (Batc (None, 30, 30, 128)       512       \n",
      "_________________________________________________________________\n",
      "flatten_12 (Flatten)         (None, 115200)            0         \n",
      "_________________________________________________________________\n",
      "dense_24 (Dense)             (None, 50)                5760050   \n",
      "_________________________________________________________________\n",
      "dropout_38 (Dropout)         (None, 50)                0         \n",
      "_________________________________________________________________\n",
      "dense_25 (Dense)             (None, 1)                 51        \n",
      "=================================================================\n",
      "Total params: 5,909,989\n",
      "Trainable params: 5,909,477\n",
      "Non-trainable params: 512\n",
      "_________________________________________________________________\n"
     ]
    }
   ],
   "source": [
    "model.summary()"
   ]
  },
  {
   "cell_type": "code",
   "execution_count": 42,
   "metadata": {},
…
